…
│ (Activation)        │ 256)              │            │                   │
├─────────────────────┼───────────────────┼────────────┼───────────────────┤
│ separable_conv2d_7  │ (None, 13, 13,    │     67,840 │ activation_5[0][… │
│ (SeparableConv2D)   │ 256)              │            │                   │
├─────────────────────┼───────────────────┼────────────┼───────────────────┤
│ batch_normalizatio… │ (None, 13, 13,    │      1,024 │ separable_conv2d… │
│ (BatchNormalizatio… │ 256)              │            │                   │
├─────────────────────┼───────────────────┼────────────┼───────────────────┤
│ max_pooling2d_3     │ (None, 7, 7, 256) │          0 │ batch_normalizat… │
│ (MaxPooling2D)      │                   │            │                   │
├─────────────────────┼───────────────────┼────────────┼───────────────────┤
│ global_average_poo… │ (None, 256)       │          0 │ max_pooling2d_3[… │
│ (GlobalAveragePool… │                   │            │                   │
├─────────────────────┼───────────────────┼────────────┼───────────────────┤
│ reshape_3 (Reshape) │ (None, 1, 1, 256) │          0 │ global_average_p… │
├─────────────────────┼───────────────────┼────────────┼───────────────────┤
│ dense_6 (Dense)     │ (None, 1, 1, 32)  │      8,192 │ reshape_3[0][0]   │
├─────────────────────┼───────────────────┼────────────┼───────────────────┤
│ dense_7 (Dense)     │ (None, 1, 1, 256) │      8,192 │ dense_6[0][0]     │
├─────────────────────┼───────────────────┼────────────┼───────────────────┤
│ multiply_3          │ (None, 7, 7, 256) │          0 │ max_pooling2d_3[… │
│ (Multiply)          │                   │            │ dense_7[0][0]     │
├─────────────────────┼───────────────────┼────────────┼───────────────────┤
│ conv2d_5 (Conv2D)   │ (None, 7, 7, 256) │     32,768 │ add_2[0][0]       │
├─────────────────────┼───────────────────┼────────────┼───────────────────┤
│ spatial_dropout2d_3 │ (None, 7, 7, 256) │          0 │ multiply_3[0][0]  │
│ (SpatialDropout2D)  │                   │            │                   │
├─────────────────────┼───────────────────┼────────────┼───────────────────┤
│ batch_normalizatio… │ (None, 7, 7, 256) │      1,024 │ conv2d_5[0][0]    │
│ (BatchNormalizatio… │                   │            │                   │
├─────────────────────┼───────────────────┼────────────┼───────────────────┤
│ add_3 (Add)         │ (None, 7, 7, 256) │          0 │ spatial_dropout2… │
│                     │                   │            │ batch_normalizat… │
├─────────────────────┼───────────────────┼────────────┼───────────────────┤
│ global_average_poo… │ (None, 256)       │          0 │ add_3[0][0]       │
│ (GlobalAveragePool… │                   │            │                   │
├─────────────────────┼───────────────────┼────────────┼───────────────────┤
│ dense_8 (Dense)     │ (None, 256)       │     65,792 │ global_average_p… │
├─────────────────────┼───────────────────┼────────────┼───────────────────┤
│ batch_normalizatio… │ (None, 256)       │      1,024 │ dense_8[0][0]     │
│ (BatchNormalizatio… │                   │            │                   │
├─────────────────────┼───────────────────┼────────────┼───────────────────┤
│ dropout (Dropout)   │ (None, 256)       │          0 │ batch_normalizat… │
├─────────────────────┼───────────────────┼────────────┼───────────────────┤
│ dense_9 (Dense)     │ (None, 7)         │      1,799 │ dropout[0][0]     │
└─────────────────────┴───────────────────┴────────────┴───────────────────┘
 Total params: 279,559 (1.07 MB)
 Trainable params: 276,103 (1.05 MB)
 Non-trainable params: 3,456 (13.50 KB)
Epoch 1/120
I0000 00:00:1781836591.381929  620630 generator_dataset_op.cc:213] Memory patch applied: M_TRIM_THRESHOLD=128 kb was set.
[1m  1/766[0m [37m━━━━━━━━━━━━━━━━━━━━[0m [1m1:46:
…
